models/syntax_gcn_balanced_10k.pt (torch, 49384 bytes, 5 tensors)

convs.0.bias f4 [64]
00000000: a279 3a3d 4863 743d 0fec 393d fbfa 8d3d
00000010: f195 ab3d 0936 203d b201 3d3d 780a 2d3d
00000020: 42bc b43d 985d 543d cc00 f43d 1b7e a13c
00000030: 21f1 1c3d 373a 9c3d 0639 2a3e 2643 703d
00000040: a7e0 723d 39b9 9f3d 0b7d 543d 87cf c33d
00000050: 11da 023d 8f2b a23d bd80 b53d 9a24 f83d
00000060: a1c6 473d f854 7f3c 7071 133d 1514 723d
00000070: d42d 063d 1457 af3c bc5d 443d a459 463d
00000080: 6d6a 9f3d aa38 2f3d d349 643d 74eb a43c
00000090: 9675 8f3d b794 493d b786 103d 0b70 403d
000000a0: 4803 253d 74e8 9c3d 2776 f33d d8fb 9e3d
000000b0: b4c4 1a3d a59f 0e3e 4e6c 7a3d a3eb ad3d
000000c0: 9c7d c33c 834e 863d c705 593c 02e2 7a3d
000000d0: 2ab2 523d 1b41 1a3d cc64 fd3c 9164 923d
000000e0: 035f f3bb 97b9 9d3d ffe4 2b3d ddbd 4d3d
000000f0: 4d9d 0f3d be86 4b3d e8fc 203d cc85 313d
0.045526154 0.059664994 0.04539114 0.06932636 0.083782084 0.039114032 0.046144195 0.042246312
0.0882497 0.05184707 0.119142145 0.019713452 0.038315896 0.07628291 0.16623315 0.058657788
0.059296276 0.07799 0.051877063 0.09561067 0.031946246 0.079184644 0.088624455 0.12116356
0.04877341 0.015584223 0.035996854 0.059101183 0.03275855 0.021403827 0.047940955 0.04842533
0.07783971 0.04277865 0.055734467 0.020131804 0.070048496 0.04921409 0.035284724 0.046981853
0.040286332 0.076615244 0.1188777 0.07762879 0.037785247 0.13928087 0.061138444 0.0849221
0.023863606 0.06557944 0.013246006 0.061250694 0.05143944 0.037659746 0.030931853 0.07148088
-0.0074270978 0.07701414 0.041966435 0.050229896 0.035062123 0.049689047 0.03930369 0.04334049

convs.0.lin.weight f4 [64, 114]
00000000: 5e06 e5bc 36ce 203e 9a88 93bd 408e a53d
00000010: f26b 0500 e69e 23be fb5c 5b3d 4766 70be
00000020: dd8b 7b3b 972d 8c3e 16ae 21be d4b4 183e
00000030: 11b7 c23d 72f3 36be 58b6 0c3d f6a7 de3e
00000040: b6c0 00bf 0175 6e3e 8fd8 2e3c a027 86be
00000050: 28c8 363d cff1 8b3d e622 a0be 3fa0 80be
00000060: 9a75 98bc be14 783d 9691 9a3d e870 833d
00000070: cad1 9fbe ccd6 25be 3676 9ebd e8ad 493c
00000080: b701 493e 686a 0500 5e11 153e 30a9 a93d
00000090: b664 1d3e 7dc9 52bc 1d9f 843e 1919 7abd
000000a0: 563d 923e ef39 c7be ddc0 36be 543c a2bd
000000b0: 6c3c 26bc a0d8 36b2 9a7b bbbd 0854 b3bc
000000c0: 696c f13e 515e 0500 ff06 22b7 9292 33be
000000d0: 1c47 223e 7ebb 213e e196 f1be c2e0 593e
000000e0: ceb0 883e 0cec 56bd 9e57 d03d d9df ea3d
000000f0: 79a2 aa3d f4e0 33bc e41f 69be ed37 463e
00000100: 2351 18be eec9 a5bd d523 8abe 67ec d9bd
00000110: 28f0 d4bd e3a9 d7be ba18 063e 0629 5e3e
00000120: 8697 f13d 9fd8 6a3d c5ad 033e 6c08 d9bd
00000130: 510f 20be cd66 a53d 8603 35be 78bc 7c3e
00000140: 8167 a2bd 3c03 433e c62a cf3d 9913 143e
00000150: 0c81 2d3e 1c8a 333e 4e08 153e 8d47 4e3d
00000160: d1a0 d93b cf52 5abe 9aa4 973d b57c b83d
00000170: 284a 7abc 9d0c b5bc fd0d 993b 320d 62be
00000180: 135c d7bd e417 b83d e5a2 723e a08d 92bc
00000190: 2acc eebd e2f4 3fbd 286e 723e c1c0 b93e
000001a0: fc3a b8bd f20b 2c3e c089 893e cc7c 973c
000001b0: 70ac 573c 44e0 83bd 4e10 89bd f341 263e
000001c0: 9689 4f3e 86e4 4c3d 4940 a03d 5fa1 50bd
000001d0: f7f9 8ebd d6ad 1f3d fc40 4736 98fa 9d3e
000001e0: 606f 31bd 8f33 023f 72e4 0a3e 07b2 10be
000001f0: 4efb 9e3e f87e d5bc 5d85 ab3c 854a 4f3e
00000200: 1136 92bd d14f b4be 244b de3e 7c90 da3d
00000210: f542 003e 1c3a 843e a35c 19be e457 333e
00000220: 099e f73e f02a 743e ff3e 3abe 17b4 d5bd
00000230: ccae 18bc 0383 c2bc 8dcf 943d ce85 8a3e
00000240: a899 ac3c c46a 723e d4b8 073b 228a 0500
00000250: 1bf4 f0bd df3e 9fbd 4211 e63c d81c 5e3e
00000260: 05c7 55be 0cee 113e cda2 ebbd de9b 033f
00000270: a70a 583e 1108 f0ba 4a09 5c3d 4f7b 0500
00000280: 7f73 103d 601f c3bd 2d41 bbbd bb38 be35
00000290: 415a 0580 5c98 633e c5a2 52bc daf2 cfbd
000002a0: 246b 8b3e c399 06be 685f b7be ca3a 1b3e
000002b0: ab3e 9bbe 94c5 5d3e 14cc 9c3c f521 1ab4
000002c0: 0e06 a83e 544e 5a3e 46ac 9b3c 5822 853d
000002d0: 2387 333e 1330 c8bd 51d3 80be dac5 893e
000002e0: e822 843e d2c3 c7bd 38a6 e03d 7520 dabd
000002f0: 886f 8fbb 0996 753e fd86 ffbd 3ec7 003e
00000300: b812 7cbd 6844 afbc e2e5 533d 9283 6abe
00000310: 570a 61be 339b 2dbe 7c8f 92be 75e4 29bd
00000320: bce1 4d3c 3b20 d7bc 2777 15be b099 a2bc
00000330: fbcd 0abe d48e aabd 48f7 9bbd f8c2 0fbd
00000340: fb93 473d d846 f83c 5198 92bd 480d 033c
00000350: 522d 663e 8d5a 8a3d 2e8b 053d 25b1 84bd
00000360: 4886 68be 6775 15be 5b72 07be 62fe 5a3e
00000370: 562c 2d3d 5fd1 14bd 42c6 c43d 566e 98bd
00000380: 978a 0cbe 1a82 003e 9c28 b7bd 9d17 353e
00000390: 816a 133d 4690 f0bd e8f7 de3d 4255 9e3d
000003a0: 325d 0500 5f96 003e 6ddd c4bd ee35 0d3f
000003b0: 433f a6b9 0392 c2bd 997c 7bbb 2064 883d
000003c0: 045f 2bbe e83f 91bd 331d 463c 9a62 53be
000003d0: 8725 983e 49ca d23d 8836 06b9 9e05 a33d
000003e0: da8f 53be be34 f9bb 3fa2 813c 682e eb3c
000003f0: 3b9d b2be d4a1 3cbe 0f60 06bd 537a 9d3b
-0.027957138 0.15703663 -0.07203789 0.08083773 4.97901e-40 -0.15978584 0.05355547 -0.23476516
0.0038382926 0.27378532 -0.15789065 0.1491273 0.095075734 -0.17866305 0.034353584 0.4348752
-0.50294054 0.23286821 0.010671749 -0.26202106 0.044624478 0.06833231 -0.31276625 -0.25122258
-0.018610764 0.060566656 0.075472996 0.064180195 -0.31214744 -0.1619522 -0.07737391 0.012309529
0.1962956 4.97349e-40 0.14557406 0.08284223 0.1537045 -0.012865421 0.25902644 -0.06105909
0.2856242 -0.38911387 -0.17847009 -0.07921663 -0.010146242 -1.0643049e-08 -0.091544345 -0.021890655
0.47153023 4.93012e-40 -9.657581e-06 -0.17536381 0.15847439 0.15794179 -0.47185424 0.21277145
0.2669739 -0.052471206 0.10172962 0.11468477 0.083317704 -0.010978926 -0.22766072 0.19357271
-0.14874701 -0.08095156 -0.26980463 -0.10640793 -0.10397369 -0.421218 0.1309537 0.21695337
0.11796479 0.057335492 0.12859257 -0.105973095 -0.15630843 0.08076248 -0.17677125 0.2468127
-0.07929898 0.19044203 0.1011558 0.14460601 0.16943759 0.17533153 0.14553949 0.050361205
0.0066414853 -0.21320651 0.07404442 0.09008161 -0.015276469 -0.022100741 0.004670857 -0.22075346
-0.10515609 0.08988932 0.23694952 -0.017889798 -0.11660035 -0.046864398 0.23674834 0.36279872
-0.089956254 0.16801432 0.26862907 0.018492125 0.013163671 -0.0643926 -0.06692563 0.16236095
0.20267329 0.050022624 0.078247614 -0.050935145 -0.06981271 0.038984142 2.9691137e-06 0.3085525
-0.043319106 0.5085992 0.13563707 -0.14130412 0.31051105 -0.02606152 0.020937616 0.2024327
-0.071392186 -0.35217145 0.43416703 0.106720895 0.12525542 0.25825584 -0.14976744 0.17513996
0.4836276 0.23844504 -0.18188094 -0.1043474 -0.009319019 -0.023744112 0.0726615 0.2705521
0.021069363 0.2367354 0.0020709531 5.0873e-40 -0.117653094 -0.077756636 0.028084401 0.2169069
-0.20876701 0.14250964 -0.11505661 0.5140971 0.21097814 -0.0018312951 0.053719796 5.03412e-40
0.035266396 -0.09527469 -0.09143291 1.4172614e-06 -4.91554e-40 0.22226089 -0.01285619 -0.10153742
0.2723018 -0.13144593 -0.35814977 0.15159145 -0.3032125 0.21657401 0.01914028 -1.4354721e-07
0.3281712 0.21318942 0.019003045 0.06500691 0.1753202 -0.097747944 -0.25161222 0.2690876
0.2580788 -0.09754147 0.10969204 -0.10650722 -0.0043773092 0.23983015 -0.12476919 0.12576005
-0.06154129 -0.021394923 0.051732905 -0.22901753 -0.219766 -0.16953735 -0.28625095 -0.04147764
0.012566026 -0.026260486 -0.14596234 -0.019848675 -0.13555138 -0.083280236 -0.076155245 -0.035098046
0.04872511 0.030307218 -0.07157958 0.007998772 0.22478226 0.067555524 0.032603435 -0.064791
-0.22707474 -0.14595567 -0.13227217 0.21386102 0.04227861 -0.036332484 0.09608127 -0.0744292
-0.13724743 0.1254963 -0.089432925 0.17684789 0.035990242 -0.11746268 0.10887128 0.077311054
4.9261e-40 0.12557362 -0.09612546 0.55160415 -0.0003170912 -0.09500506 -0.0038373827 0.06659722
-0.16735464 -0.07092267 0.012091923 -0.20643082 0.2971613 0.10292489 -0.0001279955 0.07960056
-0.20660344 -0.0076051643 0.015824435 0.028708652 -0.34885582 -0.18421108 -0.032806452 0.004805842

convs.1.bias f4 [64]
00000000: 2b6d 723d 72f8 8e3d c17f e23c 06d1 e53c
00000010: b236 063d 22d1 673d ef28 693d 4e71 3e3d
00000020: 49e6 873d ad48 6a3d 2d79 8d3d cdf8 2f3d
00000030: d541 293d 3bda 4f3d f097 de3c 1965 523d
00000040: 1b84 683d 3454 b03d 95ce 7b3d 7ea8 293d
00000050: d9ba 4c3d 8fb9 4b3d 1b93 763d a76a 5d3d
00000060: 14b1 783d a6c0 3b3d 4583 273d e139 303d
00000070: 3265 363d 1397 523d c73b dc3c 3a8f 543d
00000080: ea38 a83d 89d0 313d f604 2b3d 9cfa 183d
00000090: a6f6 0f3d bcd1 363d e7d2 fb3c 19f2 393d
000000a0: b34c 5c3d f681 743d 7d52 213d 6f46 293d
000000b0: 1a75 9d3d d1c1 f13c aea0 943c e49e 5c3d
000000c0: 0452 d63c 6749 1a3d 6c21 133d 244b 4a3d
000000d0: f58a 7b3d 5e52 143d 333d 743d 8133 923d
000000e0: d3c3 593d 4e54 473d 625d 543d 9260 2f3d
000000f0: 1376 4d3d 1dae 8a3d 173b 153d c897 383d
0.059186142 0.06980981 0.027648808 0.028053772 0.032767005 0.05659593 0.056923803 0.046494775
0.0663572 0.057198215 0.06907878 0.042961884 0.041322548 0.05074523 0.027172059 0.051365945
0.05676661 0.086098105 0.06147631 0.041420452 0.04998288 0.04973751 0.060198884 0.05405679
0.06071575 0.04583802 0.040896673 0.043023948 0.0445301 0.051413607 0.026883973 0.051894404
0.082139805 0.043411765 0.041752778 0.037348375 0.03514733 0.044633612 0.030740215 0.045396898
0.053784084 0.059694253 0.039385308 0.041326936 0.07688351 0.029511364 0.018143024 0.053862467
0.026162155 0.03766766 0.035920545 0.049388066 0.061411817 0.036211364 0.059628677 0.0713873
0.05316527 0.048664384 0.05184687 0.042816706 0.050161432 0.06771491 0.036433306 0.045066625

convs.1.lin.weight f4 [64, 64]
00000000: c14d 2f3e dfcd 74be a9d5 99bd b5e7 d73d
00000010: 732d 363e 8060 843e 4e74 00be c87a 973e
00000020: cbb8 f23d 1a85 993e 8308 923d 589d 0ebe
00000030: 6e6e 9dbd aa00 873e a8d9 01bd 14f4 0e3e
00000040: 94da 643e 9044 09bd 9d56 083c d4b1 6c3e
00000050: 7359 3cbe ec81 373e 6088 fb3d 61e2 f03d
00000060: 4986 3b3d a2c2 773e 518f 373e 4539 38be
00000070: 72f3 913e 4cf3 dfbd e35d dd3c 2a0a 02be
00000080: 7aec e7bd 8ca0 923e 0f56 81be 4b73 6a3e
00000090: 7c29 21be 69e2 8fbd 0645 703d b8d4 ecbc
000000a0: 96e1 4ebe 393a e63d d10c 393e cd01 1f3e
000000b0: b775 823d 62b6 5ebd 40f3 4cbd 0705 293d
000000c0: 3f41 e73d a1c7 123e fe4e fd3d 81ea 893e
000000d0: 273e b53e 2402 8d3e 800f 02be 8a46 cfbc
000000e0: 053d f3bd 27e8 3abd 8356 adbd e3dd 9dbd
000000f0: b036 d53c 99c9 63bd 7984 1dbe cbba 8c3e
00000100: c60f 893e 9c65 7dbe c625 68be fe47 923e
00000110: 893a 03be e33c 033e 0f0b 013c 617b 273e
00000120: e143 143e 7e22 5d3e ed90 bb3d c382 2abe
00000130: 4515 d83d 9bf3 023e 2d99 273c 4d3f 9dbc
00000140: 708d a13e 0cb2 d93d 11e1 a73c 4fcd 533e
00000150: 5bd6 4fbe 6b3c 3dbe dffa d63d b095 3f3e
00000160: 5c43 913e d9cd 423d 4cf5 e93d 0f4b cebd
00000170: d29f 2b3e 73d8 cbbd 9e41 d539 1713 a7bd
00000180: 66bb 333e f739 413d 3c06 1abe 5999 2f3e
00000190: 49f9 993c 31ce d13d 24f4 823e 4e92 f03d
000001a0: a2a5 f13d ba9a fe3d 39b6 b3bd 0473 2b3c
000001b0: 949c e3bd 19f7 8dbc bc24 8d3d b872 c3bb
000001c0: 81d5 163e f385 323d aec3 4b3e 128e 4fbd
000001d0: 07b2 683e a457 fb3d a596 8dbd 4304 013d
000001e0: 8f25 4cbe a444 253e 3769 dabd f989 0ebe
000001f0: 49e3 b63e 8a20 31be f05d 61be e6fe c13d
00000200: ec0a 3ebe 4c26 123e 3d1f 033e 3bfd d13d
00000210: 78cf 803e e6d8 89be c3b0 36bb 7ab9 fd3d
00000220: 159d 603d acfd 653d 4ba3 273e 30ef 843e
00000230: 3440 20bd 56de 16be 027c 12be 5d2f c7bc
00000240: 4b9d 83be 79cf 0e3d d991 7fbd e266 72be
00000250: 6ea8 b13e 9cf9 b73d 7b0d 1e3e de77 9b3e
00000260: 98e5 91bb 9841 f3bd 9333 bdbe e1a3 9a3e
00000270: 09b1 cdbd f2b8 dbbd 76ea bebd f345 593e
00000280: 57d1 833e 3971 9dbc 7a2a a03e b3db f0bd
00000290: a548 4c3e 1dbe 443e d049 68be 6c5e 8dbe
000002a0: e7cd 933e 008f f63d eaf9 61bb 8b81 c1bd
000002b0: 8a1a 553e 2711 213e 729b 963e f545 bebd
000002c0: a12d 89bc d7e9 393e f97a 3abe 0e51 29bd
000002d0: 9acd 073e 1e3c 263e 625e fd3d 9519 bb3d
000002e0: 70a4 bc3d 947e c2bd 73b1 84bd ae42 4e3e
000002f0: fa8f f2bd 1616 373e a6aa 6e3e 601c b9bd
00000300: 8490 c23d 2ba4 14be 78eb 1bbd 5337 9cbd
00000310: ccc4 8ebd 76c3 953e ab59 6abe 6478 593e
00000320: 215d 5d3d 6567 823e 7973 913d 7e81 9c3d
00000330: 1770 a43e 2801 423e ae66 e73c e530 5a3b
00000340: 2ae6 673d 36d1 523d d22f d0bc a650 ed3d
00000350: f3a4 c9bd c6b2 103c ab94 81bc cb12 103e
00000360: fb78 833e 9e21 d43d 7a79 ee3e d3b1 75be
00000370: df19 5fbc 5d78 29be 6308 fa3c a5b3 bdbd
00000380: 8cad 933c ad5c b83e 7616 913c 4818 13bd
00000390: 3999 6ebe bd3c f5bd 56a0 043e 46fc a23e
000003a0: 075f cfbc 2d07 26be 8be5 3b3e 3409 673e
000003b0: 8208 1c3e 54f2 bb3d 2e0f 983d 17a0 97bd
000003c0: 2b5a ac3e f2ee 07bd fc19 783d 0dc1 553d
000003d0: bb36 21bd 12cd 963e d833 01bd 7f12 38be
000003e0: 29d6 043e f856 ca3d 1121 1e3c 7e90 e2bd
000003f0: ec06 d53c e385 a0bc 5060 26be 8910 153e
0.17119505 -0.23906659 -0.075114556 0.105422415 0.17790775 0.25854874 -0.12544367 0.29585862
0.11851653 0.2998436 0.0713053 -0.1392721 -0.076870784 0.26367694 -0.031701714 0.13960296
0.22349006 -0.033512652 0.008321431 0.23114711 -0.18393497 0.17920655 0.12281871 0.11761928
0.04578236 0.2419534 0.17925765 -0.17990597 0.28506047 -0.10935077 0.027022308 -0.1269919
-0.11324401 0.28638113 -0.2526097 0.22895543 -0.15738481 -0.07025606 0.058659576 -0.028910026
-0.20203242 0.11241574 0.18071295 0.1552803 0.063701086 -0.054373153 -0.05003667 0.04126456
0.112917416 0.14333965 0.12368582 0.26936725 0.3539898 0.27540696 -0.12701225 -0.02530219
-0.11876873 -0.045631554 -0.084637664 -0.07708337 0.026027054 -0.05561218 -0.15382566 0.27486262
0.26769847 -0.24745792 -0.2267066 0.2857055 -0.12815298 0.12816195 0.007876172 0.16355659
0.14479019 0.21595189 0.09158502 -0.16651444 0.10550932 0.1278824 0.010229391 -0.019195223
0.3155322 0.10629663 0.020493062 0.20683788 -0.20296614 -0.18480079 0.104970686 0.18709445
0.28371704 0.047559593 0.1142374 -0.1007291 0.16760185 -0.09953394 0.00040675414 -0.08157938
0.17551956 0.04717442 -0.1504144 0.17148341 0.018795626 0.10244406 0.2557689 0.117466554
0.1179917 0.124318555 -0.087749906 0.010464434 -0.11113849 -0.01732974 0.06891772 -0.0059646033
0.14729883 0.043584775 0.19898865 -0.0506726 0.22724162 0.122725755 -0.06913499 0.031498205
-0.19936202 0.16139466 -0.106645994 -0.1391982 0.3572028 -0.17297569 -0.2200849 0.09472446
-0.18558854 0.14272422 0.12804885 0.10253378 0.25158286 -0.26923293 -0.0027876354 0.123888925
0.054837305 0.056150123 0.16370885 0.25963736 -0.03912373 -0.14733252 -0.14305118 -0.024314577
-0.25705943 0.03486583 -0.06239495 -0.23672059 0.34698814 0.08983156 0.1543483 0.3036489
-0.0044524185 -0.118777454 -0.3695341 0.30203155 -0.100435324 -0.10728635 -0.093220636 0.2121809
0.2574565 -0.019219028 0.31282407 -0.11760654 0.19949587 0.19213147 -0.22684407 -0.276111
0.2886803 0.12038994 -0.0034481236 -0.094485365 0.20810905 0.157292 0.2941547 -0.09290687
-0.01674539 0.18155609 -0.18210973 -0.041337065 0.13262025 0.1623387 0.12371518 0.09135739
0.092110515 -0.09496799 -0.06479158 0.20142624 -0.118438676 0.17879519 0.23307285 -0.09038615
0.095002204 -0.1451575 -0.038066357 -0.0762774 -0.0697113 0.29250687 -0.22885768 0.21237332
0.054043893 0.2546951 0.07102103 0.07641886 0.32116768 0.18945754 0.028247204 0.0033293304
0.056615986 0.05146905 -0.025413428 0.11587648 -0.09845915 0.008831685 -0.01581796 0.14069669
0.25678238 0.103579745 0.46577054 -0.23993616 -0.013617008 -0.16549821 0.030521577 -0.0926278
0.01802709 0.36008206 0.017710906 -0.03591183 -0.23300637 -0.119744755 0.12951788 0.31833094
-0.025313867 -0.16213675 0.18349282 0.22562104 0.1523762 0.0917708 0.0742477 -0.074035816
0.33662543 -0.03318686 0.060571656 0.05218606 -0.039358836 0.2945333 -0.031543583 -0.17975806
0.1297232 0.09879869 0.009651438 -0.11062716 0.026004277 -0.019595092 -0.16247678 0.14557089

lin.weight f4 [1, 64]
00000000: 8c48 89be 8ee1 9cbe 1117 433e d774 febd
00000010: c5e7 83be e07a 903e 09da 1a3e a509 3bbe
00000020: 4e9d 463e 270a 6ebe 3839 8f3e 5d21 57be
00000030: c10f 58be e09b 583e 4d06 fb3d 1e38 723e
00000040: 0cac 7fbe 67cf 8d3e be1b 66be 573c 2e3e
00000050: 3638 443e 9ff9 15be 8928 32be abe7 5e3e
00000060: 1e7b 243e 92a8 1cbe 25b0 69be 0e0a 61be
00000070: 3f51 6a3e 8f53 65be 89bd 0e3e 6aeb 1fbe
00000080: a3b0 59be 014a 1ebe 82c4 7d3e 2a55 823e
00000090: 845f 6e3e 4f33 7e3e f9c6 08be 2328 07be
000000a0: 78b1 443e ceeb 5b3e 9f7d 843e 5d5c 793e
000000b0: d93b 96be 06af 5d3e 0b3a 423e 9820 1fbe
000000c0: 7a0b 6e3e 69ff 50be 7aeb 4dbe e153 3a3e
000000d0: 2d10 443e 6567 443e b24d 27be 9c1a 74be
000000e0: dc99 733e 3c96 853e f517 3a3e ae82 623e
000000f0: 00dd 8b3e 538e 883e 0411 2abe 1467 49be
-0.2681316 -0.30640835 0.19051768 -0.12424629 -0.25762764 0.28218746 0.15122236 -0.18265398
0.19395944 -0.2324606 0.27973342 -0.21008821 -0.2109976 0.21153212 0.12257061 0.2365422
-0.24967974 0.27697298 -0.2247152 0.17015205 0.19162068 -0.14646004 -0.17398275 0.21768062
0.1606259 -0.1529868 -0.228211 -0.21976492 0.22882555 -0.22395156 0.1393949 -0.15617147
-0.21258788 -0.15457918 0.24781993 0.254556 0.23278624 0.2482426 -0.13357152 -0.13198905
0.19208324 0.21476671 0.2587709 0.2435164 -0.29342535 0.21648797 0.18967454 -0.15539777
0.23246565 -0.20409931 -0.20109358 0.1819606 0.19146796 0.19180067 -0.16338232 -0.23838276
0.23789161 0.26091182 0.18173201 0.22120163 0.27317047 0.26671085 -0.16608053 -0.19668227
